backend/chatbotmodel/bert_model.pth (torch, 418088 bytes, 4 tensors)

fc1.weight f4 [128, 768]
00000000: a305 0ebe b16e ba3e d142 9ebd 3a24 633d
00000010: 7514 1bbe 020c 953d 6195 903d 4e7f 1f3e
00000020: bf92 babd eba7 753d 9464 f33c 0b61 0abe
00000030: e71f 293e 8e48 863c c739 173c e0be 60be
00000040: 9bc1 9f3d 1be6 183e c13f 843e a2e2 42be
00000050: b963 333d f155 883d 0881 243c aeba 193e
00000060: 49a2 02be bc97 af3c 1a54 723e 4662 cdbd
00000070: a50e 0d3d d943 983d b16c c03e de7d a8bd
00000080: 0a23 2ebd 9da4 f73d e752 cf3d 3117 533e
00000090: 12c6 2abc 19a4 4b3e 127d d83d 6a8c 7a3c
000000a0: 107e 793d a8a3 5abb 6dc4 44be ecd4 883d
000000b0: c846 3fbe 795c 813d d22a 5a3c 75ed 9e3d
000000c0: 6d3b dfbb a80f 9a3e d84b 25be 0d0b d33b
000000d0: 99c3 f1ba eec6 2abe f403 91bc 1c55 15bd
000000e0: 47a9 47bc 63ad 9fbd 6366 593e e6cf 903d
000000f0: bf8e e8bd 76bb af3c 7fd3 423d feea 6b3e
00000100: a998 283d d49a 0ebe a95b c13d b726 a8bd
00000110: d5f7 24bd 6299 013e df5a 793c ca25 b0be
00000120: 16ba 433e ba48 29bd 8119 82be db3e c83b
00000130: ccc4 b33d 5c13 f23d 87fb 7f3e f36b ce3d
00000140: f685 c3bd c455 273e 859c 0a3e 7777 463e
00000150: 6a91 1f3e ada2 19bd c213 d93d bb95 423d
00000160: 46ad fb3d 6dae 383d 083d eb3c fab6 b8bd
00000170: 2d16 afbd 8091 99be 7b1b 18bd 2abf 8bbd
00000180: 1d99 303e c3d8 bbbd bba8 59be 2fdd 08be
00000190: d273 173e 34e5 523e 74c8 793d 0be4 2e3e
000001a0: 6ca0 db3a 3f22 0bbe e18f 67bd a122 0ebe
000001b0: 473c a4bd fe3e 683d 3c10 08bd 459f d33d
000001c0: 0e3a e6bd bf65 c03d cd73 8a3b 483b 3abe
000001d0: 724c ec3d 1520 00be 189f 3abb 0159 6a3d
000001e0: 05ea 483e 5311 f53d 6e8e ecbc cb18 bcbd
000001f0: b1fe 98bd 1ed1 3e3e 9a6d 17be 6e28 15bc
00000200: 075b 0f3e ea98 d5bd 9783 a6bd 071b 82bd
00000210: eb6e 8ebd c943 623d 5d01 063d 86f4 423e
00000220: 57e9 6a3e 7433 f2bd e3d9 77bd c6c8 9b3d
00000230: c3a0 edbd 0470 25be 39ff 8abd b9ce 873b
00000240: c4c0 0bbe 9f99 aabd 1e53 69be 917c ecbc
00000250: 7c3d 93be 769b 9abe 542f 10be 5dda 403e
00000260: 7f9a 903b d5b2 fb3a 34ea 2bbe 67fd d13d
00000270: 19f5 03be cc87 c7bc 6e47 69be bf2b 5b3d
00000280: 9667 4d3d eab9 333c 088a 8abd 6538 c23d
00000290: 73ee 27bc 258e 9a3d d399 b4bb 5117 cd3d
000002a0: 3c93 76bc e393 c03d 934c e7bd 3584 7b3e
000002b0: 755e 4c3e 1504 98bd 4d19 8f3e e0ee 2a3e
000002c0: bb60 c13d 27d0 b43d 4c03 3fbc 1ed4 49be
000002d0: c6da 793d c19c 263d 8287 64bd 2da4 44be
000002e0: 8182 433d 57c1 ff3b a5a6 88be 0572 b03d
000002f0: 325f 21bd 6036 8e3d aa73 d93d 517e a0bd
00000300: 25ef 0a3e b5b7 403d 1e48 5e3e 6f9f 59bd
00000310: 7dd2 69bc 6b45 6eba c880 2c3e 9e09 e73d
00000320: e51f 28be d70e 803d 0829 6cbd 8a6c 47bd
00000330: dae2 27be 2edb 2e3e db5d 543e ba79 bf3d
00000340: 318f 723d e3e4 56be e324 6a3c 8435 203e
00000350: 1939 debd 6e12 8fbe 1a26 09be 9108 613e
00000360: c3f2 b73d 3835 b53d de06 92be 0056 cbbd
00000370: 0e67 983e ef39 153c 3623 3f3e 23ea aa3d
00000380: 37a9 4e3e 8b16 5ebe 055d 5abe 53ed 1c3c
00000390: 142b 88bd 17ee 103d 2a75 57be 73f6 263c
000003a0: e769 583e bbd6 2fbe b766 2abe 7ff6 7fbe
000003b0: b280 aebc 5579 8d3e 146b 763e f956 44be
000003c0: a4a7 903e 393b 263d adf7 843d d137 2abe
000003d0: 6260 2f3c 37fd cb3d 9f02 bb3d fd11 e13d
000003e0: ee64 053e 3bc3 023d a471 de3d 5d94 fa3d
000003f0: 8583 cd3c b85d 483e ea2f f43d 60ab 463d
-0.13869338 0.36412576 -0.07727588 0.05545447 -0.15144522 0.07277681 0.07059742 0.15575907
-0.09110021 0.059974592 0.029711045 -0.13513581 0.16516076 0.016392019 0.009230084 -0.21947813
0.07800599 0.14931528 0.2582989 -0.19031766 0.043796275 0.06657017 0.010040529 0.15012619
-0.1275722 0.021434657 0.23664895 -0.1002851 0.034437794 0.07434816 0.37582925 -0.08227132
-0.042513885 0.12091944 0.10123234 0.20614316 -0.0104232 0.19886817 0.1057073 0.015292266
0.06091124 -0.0033361707 -0.19215555 0.066812366 -0.18679345 0.06316466 0.013315873 0.07760135
-0.006812504 0.3009007 -0.16142213 0.0064405263 -0.0018445133 -0.16677448 -0.01770208 -0.03645812
-0.012186355 -0.07796743 0.21230464 0.070709035 -0.11355352 0.021451693 0.04756498 0.23038861
0.041161213 -0.1392625 0.09441311 -0.08210509 -0.040275414 0.12656167 0.015219419 -0.3440383
0.19113955 -0.041329123 -0.25410083 0.0061110086 0.087777704 0.11820099 0.24998294 0.100791834
-0.095470354 0.1634131 0.1353627 0.1938151 0.15582815 -0.037508655 0.10599472 0.047506075
0.12288909 0.04508822 0.028715625 -0.09019275 -0.085491516 -0.2999382 -0.037135582 -0.06823571
0.17245908 -0.091722034 -0.21255772 -0.13365625 0.14790276 0.20595247 0.060982183 0.17079179
0.0016756183 -0.13587283 -0.056533698 -0.13880397 -0.080193095 0.0567007 -0.033218607 0.103331126
-0.11241542 0.093944065 0.0042252303 -0.18186677 0.11538018 -0.12512238 -0.0028476175 0.057213787
0.19620521 0.11966195 -0.02887651 -0.091844164 -0.074704535 0.1863446 -0.14787903 -0.0091038775
0.13999568 -0.10429557 -0.081305675 -0.06352811 -0.0695475 0.055240426 0.032716144 0.19038591
0.22940575 -0.1182622 -0.060510527 0.07606654 -0.116029285 -0.16156012 -0.06786961 0.0041445163
-0.13647753 -0.08330082 -0.22785613 -0.028867992 -0.28757846 -0.30196732 -0.14080554 0.18833299
0.0044129486 0.0019203076 -0.1678856 0.10253411 -0.12886466 -0.024356745 -0.22781155 0.053508516
0.050147615 0.010969618 -0.067646086 0.09483413 -0.010249722 0.07546643 -0.0055115013 0.10014213
-0.015049752 0.09403207 -0.11293902 0.24562152 0.19957907 -0.074226536 0.2794899 0.16692686
0.09442278 0.088287644 -0.011658501 -0.19709823 0.060999654 0.040676836 -0.055793293 -0.19203253
0.04773188 0.0078050303 -0.2668964 0.086154975 -0.039397426 0.06943965 0.10617764 -0.07836593
0.13567789 0.047050197 0.21707198 -0.053130563 -0.014271376 -0.00090893236 0.16846001 0.11281131
-0.16418417 0.062528305 -0.057656318 -0.048687495 -0.16395131 0.17075798 0.20738928 0.093493894
0.05921859 -0.20985751 0.014291021 0.15645415 -0.10850734 -0.27943748 -0.13393441 0.21975924
0.0898185 0.08848041 -0.28520864 -0.099285126 0.29766124 0.009108051 0.18665776 0.08345439
0.20181738 -0.21688287 -0.21324547 0.009578067 -0.066488415 0.03538331 -0.21040788 0.010190594
0.21134149 -0.17171757 -0.16640745 -0.24996375 -0.021301601 0.27631631 0.24064285 -0.19173802
0.282529 0.040583823 0.06492553 -0.16622855 0.010704132 0.09960406 0.09131359 0.10989759
0.13026783 0.031924468 0.10861519 0.12235329 0.025087127 0.19567001 0.119232014 0.04850328

fc1.bias f4 [128]
00000000: 91af 3e3e 908e d83d 6cce 283e 24c0 bd3d
00000010: e156 063e 4201 a93d 6569 083e ad39 003d
00000020: 9da3 a63d 1afb e23d 20a8 ba3d a651 083e
00000030: 07a7 5a3e eda9 0b3e ded8 113e a401 243e
00000040: 18e1 523e 66c9 d5bc 6d35 163e dcf8 cc3d
00000050: fbcf 7f3d 1d3c 0e3e 2613 053e f3c0 c83d
00000060: baf7 b03d f7f5 113e 298a fa3d 8eb7 e33d
00000070: a34b f63d 62dc 373d 3efe a83d c04a e33d
00000080: f10a cc3d cc11 8f3d f0bc 2e3d 1b11 113d
00000090: c76c b93d a197 0d3e 1f78 e53d 8e64 193e
000000a0: d62b a9bc 074c a43d e8ce 1f3e f63b 1a3e
000000b0: 973b f839 826a ef3d 7a19 033d 59af f83d
000000c0: c408 1abd 3b1a 2a3e 758c 613e cd05 dc3d
000000d0: 4832 b13d 4fde 173e c293 663e 6521 163e
000000e0: 426b 203e 6645 163e e859 4d3d 815f d23c
000000f0: 8791 c83d 75d1 813d 1bee 103e ffe4 f43d
00000100: c86c 363c 37f9 283d ab9b 18bd 5d43 513e
00000110: 5173 983d 89c3 523e 03f6 013e 7223 9b3d
00000120: de46 0d3e 0347 e23d a23d 143e 9323 a53d
00000130: 3146 853d b50b d83d 132e db3d 9222 d63d
00000140: 819a b93d 04b2 813c 44c3 4e3e 12f0 a43e
00000150: 452b 303e 119f 1e3e ca77 e83d 1b51 bd3d
00000160: bc95 623d 2e52 7d3e e2e8 fc3d 518f d2bc
00000170: 26e9 883c 1c92 ca3d 942a 113e 1b6e c03d
00000180: e6ef e63d f276 623e f28c 7b3d 7bf8 473d
00000190: 6e70 cebc 6bd5 d03d a322 533e b2fe 293d
000001a0: 1f6c b13d f211 e53d 2332 183e 727e c63c
000001b0: d60b c43d efad 903d a4eb cc3d b35c 9b3d
000001c0: a53f 1cbd b69c f73d b4b5 953d 6155 fd3d
000001d0: 5722 e23c b47f f03c 6bd8 1f3e 6ecc 6f3d
000001e0: a24c d63d 9043 033e 2eff 113e 9f85 b73d
000001f0: 244b 223e a7c9 ec3d 8e82 4c3d e110 203e
0.18621661 0.10574067 0.16484994 0.092651635 0.13119079 0.08252193 0.13321455 0.031305004
0.081366755 0.1108305 0.091140985 0.13312396 0.21352778 0.1363904 0.14242885 0.16016251
0.20593679 -0.02609701 0.14668818 0.10008404 0.062454205 0.13890119 0.12995586 0.09802427
0.08641 0.14253984 0.12233383 0.11118995 0.12026145 0.044887908 0.08251618 0.11098242
0.099630244 0.06985816 0.042660654 0.035416704 0.09053951 0.13827373 0.11204552 0.14979765
-0.020650785 0.080223136 0.15606272 0.15061936 0.00047346644 0.11690237 0.03200672 0.1214282
-0.037606016 0.16611569 0.22026236 0.10743294 0.086521685 0.14830898 0.22517303 0.14661177
0.15665916 0.14674911 0.05013457 0.025680305 0.09793382 0.06338779 0.1415333 0.1195774
0.011134334 0.041253295 -0.03725783 0.20435853 0.0744387 0.20582403 0.12691502 0.0757512
0.13796565 0.11048701 0.14476636 0.08063426 0.065075286 0.10549108 0.10702147 0.104558125
0.090626724 0.015831955 0.20191675 0.3221441 0.17204006 0.15490367 0.11350973 0.09243985
0.05531858 0.2473838 0.12349106 -0.025703104 0.016712736 0.098911494 0.14176399 0.09396001
0.11276226 0.22115687 0.061413713 0.048820954 -0.025200095 0.10196956 0.20618682 0.041502662
0.086632006 0.111850634 0.14862876 0.024230216 0.0957257 0.07064425 0.100058824 0.0758604
-0.038146634 0.12090437 0.07310048 0.123698 0.027604265 0.029357769 0.156099 0.05854457
0.10463835 0.12818742 0.142575 0.08961033 0.15848976 0.115619 0.049929194 0.15631439

fc2.weight f4 [41, 128]
00000000: 5154 6dbe 0e66 d43d 2755 1bbe fcc8 8dbe
00000010: 2100 febb d499 afbe 6214 103e ac65 efbe
00000020: 8fc4 f63d 1423 613d 7685 ee3d 01d1 b5be
00000030: 8e59 1a3e f3ff a9bd 4493 733d bf48 fdbe
00000040: 41c5 4f3e 6aca f23c e73b b7be 29ef d9bd
00000050: 1700 13be bcb9 15bd f147 8f3d fd87 6fbe
00000060: 3754 aebe c89c 5cbf 7e1a cabc 34b6 433d
00000070: 5028 2d3e 0c23 52be 2b03 163e 2c51 30bb
00000080: 6c4e 82bd 7b5a a1bd 7555 2dbd ab83 1bbf
00000090: 581a 52be 4145 b53d 45a7 2bbd b34c 95bc
000000a0: 1606 36bd 81e0 7dbd 9c6d 88be 6308 39be
000000b0: a058 473d 38c9 963c 6bd2 233e 3214 81bd
000000c0: e409 aabd af8f 1dbe 97d8 28bf f9a9 a2be
000000d0: 564f 923c 77d7 15bc ef6b cfbe ef96 f4bc
000000e0: 8ee3 abbe 7b79 86bd ce21 773e 0a70 a03d
000000f0: 7b92 0bbd 3dfc 0d3d 76d1 00bf 2403 bd3d
00000100: f2f3 933d 391f 273e ea8b 6e3c f42d be3d
00000110: 1deb 3a3d a3c9 a9bd bc51 f2bc cf8c cd3c
00000120: 0c2d 52be 8691 283e 6e1a 4dbe 9e8e f33d
00000130: 555f 503d bd4b d83c 4980 febd 220d 10bf
00000140: 85a5 f4be 609a b63d bb20 36bf 7693 52bd
00000150: 72d6 aa3d 8a78 e4bc f50c a83d 0790 68bd
00000160: 086a 8a3e 7e8a c9be 44f4 353d bbbf 9bbb
00000170: 0e0d 023e e201 64bd a25e 2bbe 0620 bbbe
00000180: a96d d3be 9fe6 bfbe 580a 463e 247b 123d
00000190: 94c9 6abe f9c0 933d 4faa f8bd 419c c9bd
000001a0: 583d 8a3c 93b1 443e d46f abbd 0fc6 f2bb
000001b0: f565 1ebd db78 163d afbb abbe 8277 da3d
000001c0: 0807 97bd 0633 49bd 1e90 0bbe e827 da3b
000001d0: 51b8 933e 1813 033d 6003 6c3b 0769 cabd
000001e0: ae36 60bd ded4 253e 44c2 11bd ed0f 13be
000001f0: 9cdf 1dbe bea9 c2be ce5f 87bd ce2e 55be
00000200: beca b6be 7696 5a3d 8786 50be 8b73 673c
00000210: 80b8 4cbe 7ec2 1b3d c33f b13d 17ff 5d3e
00000220: 2bca cabd 34ed 86bd 0236 5d3d ef37 f8be
00000230: c397 b2bd f1c1 cebe 5148 3d3e 8a00 a6bc
00000240: 497a 9bbc 0f75 abbd ed56 393e b8b4 12be
00000250: 60c8 00bd a21b 463e a0ea f0be a1f5 003e
00000260: e49b 4b3e 4d2d bdbe a457 283e c942 293e
00000270: 97f0 3bbc 8657 dbbd 9b0b 7c3d 46f7 27bd
00000280: b52f 173c f39c 55bb dd9c 2f3e efdc b6be
00000290: 0eb5 113e d276 1dbe 862d ab3d 0d0a 533e
000002a0: 20da 843d 1532 a33d 8ded 7ebd 7b48 dcbb
000002b0: 095d e23c d428 2abf 348d f13d af5f 4cbd
000002c0: 8341 5a3d 14ee 9cbe 7e77 a9be 0715 6bbe
000002d0: 0001 f5be 2aa6 17bc 47c6 0cbf 6444 86bd
000002e0: 4656 33bd ec6c 393d 7f78 02bf aea4 b3bd
000002f0: b489 04be 1709 0abe 23ed b2be a353 67bd
00000300: 70e1 e7bd 9eff b43d 054f 8d3d 6170 ecbd
00000310: 1065 7cbe eb5b 4dbe e848 86be 1801 b1bd
00000320: 4f73 d3bc 5758 10bd 316b 1abc 6bb6 dc3d
00000330: 07d7 1fbd 0e65 203e d0d8 09bf 1d3e e93d
00000340: 8878 39be 1967 80be c1c7 27be 2437 5ebe
00000350: 4b73 3bbd 6d36 743d c1b1 023d 68ce d63d
00000360: 2f72 11bd 7ad2 3bbf 9909 3c3e aab6 873b
00000370: 1315 34be 72a0 203e b800 b2bd bc23 b13b
00000380: a303 303e 5097 3ebf 4674 353e 42c2 49bc
00000390: febe c83d 5c77 51bd 8abe dcbe f168 12be
000003a0: 1e6b eb3d 43ff 6a3d 565c 05be 79f6 9fbc
000003b0: 252c 903d 909a a63d b182 71be f8c1 8fbe
000003c0: caf9 e73c b5ff 8bbe cb6b a13d 8b23 38be
000003d0: 1adb d03d 27e6 05bf cb82 8abc 7647 78bc
000003e0: 54ac 183e 1dda 973d f5af 873d 8602 fdbc
000003f0: 514b b5bc c2e8 6cbe 5e11 063e dc63 f9be
-0.23176695 0.10371028 -0.15169202 -0.276924 -0.00775148 -0.3429705 0.14070275 -0.46757257
0.12049209 0.054965094 0.116465494 -0.3551102 0.15073225 -0.083007716 0.059466615 -0.49469563
0.2029009 0.029637534 -0.3578789 -0.10641319 -0.14355503 -0.036554083 0.069961436 -0.23391719
-0.34048626 -0.8617673 -0.024670836 0.047781184 0.16909909 -0.20521182 0.14649646 -0.002690385
-0.06362614 -0.07878586 -0.042317826 -0.60747784 -0.20517862 0.088511 -0.041907568 -0.01822505
-0.044439398 -0.06198168 -0.26646125 -0.18069606 0.048668504 0.018406495 0.15998237 -0.0630268
-0.08302668 -0.15386842 -0.6595549 -0.31770304 0.017860096 -0.009145609 -0.40512034 -0.029857127
-0.33572048 -0.06566139 0.24133989 0.0783387 -0.03407524 0.03466438 -0.5031961 0.09229115
0.07224263 0.16320504 0.014559725 0.092861086 0.045634378 -0.08290412 -0.02957999 0.025091557
-0.20524997 0.16461763 -0.20029613 0.118924364 0.050872166 0.026403302 -0.12426812 -0.5627004
-0.4778253 0.089161634 -0.7114369 -0.05141016 0.083416834 -0.027889509 0.08205596 -0.05677798
0.2703402 -0.39363474 0.044422403 -0.0047530807 0.12700292 -0.055665858 -0.16735318 -0.3654787
-0.41294602 -0.37480637 0.19339883 0.035761967 -0.22928458 0.07214541 -0.12141859 -0.09844256
0.016874954 0.19208364 -0.08370939 -0.0074088643 -0.038671453 0.03673635 -0.3354163 0.106673256
-0.07374388 -0.049120925 -0.13629195 0.006657589 0.2885156 0.03200063 0.0036012754 -0.098833136
-0.054739647 0.16194484 -0.035585657 -0.14361544 -0.15417331 -0.38020128 -0.0661007 -0.20818636
-0.35701555 0.053366147 -0.20363818 0.014126669 -0.19992256 0.03802728 0.0865474 0.2167934
-0.09901842 -0.06588212 0.054006584 -0.48480174 -0.087203525 -0.4038234 0.18484618 -0.020263929
-0.018979209 -0.083719365 0.18099566 -0.14326751 -0.031441092 0.19346479 -0.47054005 0.125937
0.19883686 -0.36948624 0.16439682 0.16529383 -0.011470935 -0.10710053 0.061534505 -0.041007303
0.009227683 -0.003259477 0.17149682 -0.35715434 0.14229223 -0.15377358 0.08358292 0.20609303
0.064869165 0.07968537 -0.062238265 -0.0067225075 0.027632253 -0.6646855 0.117945105 -0.04989594
0.053285133 -0.3065039 -0.33098978 -0.2295724 -0.47852325 -0.009255925 -0.5499005 -0.06556013
-0.04378345 0.04526989 -0.5096511 -0.087716445 -0.12943155 -0.1348003 -0.34946546 -0.056476247
-0.11322296 0.088378176 0.068998374 -0.11544872 -0.24647927 -0.20054595 -0.26227498 -0.08642787
-0.02581182 -0.035240497 -0.0094249705 0.10776981 -0.039023425 0.1566355 -0.53846455 0.113888
-0.18112385 -0.25078657 -0.16384794 -0.21700722 -0.04576425 0.059622217 0.0319078 0.104885876
-0.035509285 -0.73368037 0.18363036 0.0041416483 -0.17586164 0.15686205 -0.08691543 0.005405871
0.17188887 -0.74449635 0.17720136 -0.012314381 0.09802054 -0.05113922 -0.4311412 -0.14297844
0.1149504 0.057372343 -0.13023505 -0.019526707 0.0703967 0.08134949 -0.23585011 -0.28077674
0.02831735 -0.27343526 0.07881888 -0.17982309 0.1019804 -0.5230431 -0.01690807 -0.015153756
0.14909488 0.07414649 0.06625358 -0.030884992 -0.02213064 -0.23135665 0.13092563 -0.48709

fc2.bias f4 [41]
00000000: b3e4 90bd f913 c4bc 501c ca3c f024 4e3d
00000010: 3f2e c0bd 2caf 233c 82ed 853d 588f 3d3d
00000020: 1427 84bd 2e4d 29bc 7cd7 193d d469 1cbd
00000030: de7f 95bb 244b ccbd 9762 43bd 1703 c5bd
00000040: 6866 86bd 105d 543d a66b 6cbd ab3d aabc
00000050: c92d a0bd 1189 333d ddcc 3ebd e617 103d
00000060: d9d1 8bbd ba16 0b3e a75c 403d ad0d 02bd
00000070: 103d 473d 6291 fb3c e3c5 9bbb 9eec 10bd
00000080: 0602 64ba a987 783d a272 1b3c 50b6 d43c
00000090: 65b1 a2bd 4e08 cfbc a9e8 c83d b684 893d
000000a0: 528d 583d
-0.07074871 -0.023935305 0.024671704 0.050328195 -0.09383821 0.009990495 0.06539442 0.04627928
-0.06452766 -0.0103333425 0.037559018 -0.038186863 -0.004562362 -0.099752694 -0.047701444 -0.0961973
-0.06562501 0.051846564 -0.05771985 -0.020781359 -0.07821233 0.04383189 -0.04658209 0.03517904
-0.06827135 0.13582888 0.04696336 -0.031751323 0.048642218 0.030708972 -0.0047538145 -0.035381906
-0.0008697811 0.06067625 0.00948778 0.02596584 -0.079439916 -0.025272515 0.098100014 0.06714766
0.05286915
