backend/chatbotmodel/bert_model.pth (torch, 476200 bytes, 4 tensors)

fc1.weight f4 [128, 768]
0	0xbcfd7086	-0.030937444
1	0xbe6d895e	-0.23196933
2	0x3da57f4a	0.08080919
3	0x3e4e97d7	0.2017511
4	0xbd470539	-0.048588965
5	0x3f057735	0.5213502
6	0xbf0cc22a	-0.5498377
7	0xbdb07097	-0.08615225
8	0x3c973ece	0.018462565
9	0x3dfab90c	0.12242326
10	0x3d5cdfd0	0.05392438
11	0xbe627751	-0.22115828
12	0x3a477ee2	0.00076101546
13	0x3bb77cb0	0.0055995807
14	0x3d74e907	0.059792545
15	0xbdff458b	-0.12464436
16	0xbe433187	-0.19061862
17	0xbed1426f	-0.40870997
18	0x3dea482e	0.114395484
19	0x3dbd6998	0.09248656
20	0xbe7079f4	-0.23484021
21	0xbce42293	-0.027848518
22	0xbe6ce378	-0.23133647
23	0xbe87c82a	-0.265199
24	0x3da8f17d	0.08249185
25	0x3de8dbcf	0.1137005
26	0x3da6ec81	0.08150578
27	0xbe13a60c	-0.1441881
28	0x3d98ac18	0.07454699
29	0x3dba7e66	0.0910614
30	0xbe148d06	-0.14506921
31	0x3d4554de	0.04817664
32	0xbe9038e6	-0.2816841
33	0xbe2ed42e	-0.17073128
34	0x3e93f631	0.28898767
35	0xbe8f73ae	-0.28017944
36	0xbe0963a8	-0.13416922
37	0x3e27562a	0.16341463
38	0x3dc4a427	0.09601622
39	0x3d85eaa1	0.065388925
40	0xbd8b47cc	-0.068008035
41	0xbced04d5	-0.028932968
42	0xbe8b0b42	-0.27157027
43	0x3d869c71	0.065728076
44	0x3e27ee3d	0.16399474
45	0xbde2c497	-0.11072653
46	0x3cc8e923	0.02452523
47	0xbc880594	-0.016604222
48	0x3e41c06e	0.18921062
49	0xbe1b8533	-0.1518753
50	0xbe900a6d	-0.28132954
51	0x3d2dbe6b	0.042417925
52	0x3f04133b	0.51591843
53	0x3e651ae6	0.22373542
54	0xbd8d99d7	-0.06914108
55	0xbd0f27ca	-0.034950055
56	0xbd356f11	-0.044295374
57	0x3d492392	0.049106188
58	0x3e86ffa8	0.26366925
59	0x3edf54a0	0.4361925
60	0xbe6c21f9	-0.23059835
61	0xbe7401a8	-0.23828757
62	0x3dd5683b	0.10420271
63	0x3d2d3fe7	0.04229727
64	0x3e88e4ec	0.26737154
65	0xbea0e825	-0.31427112
66	0x3d9e6be9	0.07735426
67	0xbe1f4cd0	-0.15556645
68	0x3e20d202	0.15705112
69	0x3e541788	0.20712101
70	0xbe0a3507	-0.13496791
71	0xbe186e38	-0.14885795
72	0x3dea1b84	0.114310294
73	0xbc64a7f8	-0.0139560625
74	0xbe6217ae	-0.22079346
75	0x3e86e725	0.26348224
76	0xbdb9c447	-0.0907064
77	0xbcb1af9f	-0.021690188
78	0xbc4e9438	-0.01260858
79	0xbe0b959b	-0.13631289
80	0xbde0e527	-0.10981207
81	0x3e006073	0.12536792
82	0xbe3d435a	-0.18482724
83	0xbe301140	-0.1719408
84	0x3e155dba	0.14586535
85	0x3ece8a3a	0.40339833
86	0xbe60bf64	-0.2194801
87	0x3dcbce0b	0.09951409
88	0x3ec5e62d	0.38652173
89	0x3eff0cd4	0.49814475
90	0x3d689b9a	0.05678902
91	0xbe06bbd5	-0.1315759
92	0x3db43855	0.08799807
93	0x3c8bee82	0.017081503
94	0xbdb14946	-0.08656554
95	0xbe938568	-0.28812718
96	0x3c9a04b3	0.018801069
97	0xbeb4ff5b	-0.3535107
98	0x3c3f2101	0.011665584
99	0xbe8eb9e1	-0.2787619
100	0x3ddba037	0.10723918
101	0xbcf8a7bd	-0.030353421
102	0xbead88eb	-0.33893523
103	0x3c830fa0	0.015998662
104	0x3ede3af1	0.43404344
105	0x3dc7a9c4	0.09749177
106	0xbd53d66f	-0.05171817
107	0x3ddfd99d	0.10930178
108	0x3e3ea497	0.18617474
109	0x3e821d53	0.25412998
110	0x3ecb57ae	0.39715332
111	0x3e98244b	0.2971519
112	0x3e1f9e94	0.15587837
113	0x3e07f91b	0.1327862
114	0xbe553c59	-0.20823802
115	0x3bca7add	0.006179197
116	0x3d4a921f	0.04945576
117	0x3e06b0bf	0.13153361
118	0x3e8adf91	0.27123693
119	0x3ea4d87c	0.32196414
120	0x3e08f064	0.13372952
121	0xbe122856	-0.142732
122	0x3eaed478	0.34146476
123	0xbdb0f6ff	-0.08640861
124	0x3de2fd02	0.11083414
125	0x3df13f1c	0.11779615
126	0x3e4f81e5	0.20264395
127	0xbc9e8bed	-0.019353831
128	0xbe1b1333	-0.15144043
129	0x3e9a3a9b	0.30122837
130	0x3d5e9580	0.054341793
131	0x3dfdaaf7	0.123861246
132	0x3e67df39	0.22643746
133	0x3e6207ff	0.22073363
134	0xbe1ebfad	-0.15502806
135	0x3e2a40dd	0.16626306
136	0x3e8c4ed3	0.27403888
137	0x3e166f6b	0.1469094
138	0xbd3fe887	-0.046852615
139	0x39538ba1	0.00020174544
140	0x3c8dfb99	0.017331885
141	0x3e1ec176	0.15503487
142	0xbefbf7e7	-0.49212572
143	0xbe0ceba0	-0.13761759
144	0xbdbc59f7	-0.09196847
145	0xbe6e4e1c	-0.23271984
146	0xbdf2420c	-0.11829004
147	0xbd68ed04	-0.05686666
148	0x3e45bedb	0.19311087
149	0x3ad00beb	0.0015872692
150	0xbe526096	-0.20544657
151	0xbd123044	-0.03569056
152	0xbe22b06b	-0.1588761
153	0xbe001efb	-0.12511818
154	0x3e39f1d9	0.18158664
155	0xbaedc599	-0.0018140554
156	0xbd9c7105	-0.07638744
157	0x3b97fdd6	0.004638414
158	0x3d8c27a4	0.06843498
159	0xbd547ec4	-0.051878706
160	0xbcad69d7	-0.021168632
161	0x3e8a870d	0.2705616
162	0x3b8789aa	0.004136284
163	0x3d61237b	0.054965477
164	0xbe2fb230	-0.17157817
165	0xbe22505b	-0.15850966
166	0x3dcb7ef2	0.09936322
167	0xbe29d39d	-0.1658463
168	0xbda24a43	-0.079243205
169	0x3df96561	0.121775396
170	0x3ea399e2	0.3195334
171	0xbe0476b4	-0.12935907
172	0x3e104607	0.14089213
173	0xbd45e2b3	-0.0483119
174	0x3e51aff7	0.20477282
175	0xbb4c0b0d	-0.0031134516
176	0xbd9dff43	-0.07714703
177	0x3ec69ebb	0.38792977
178	0x3e66848d	0.22511502
179	0xbe251862	-0.16122583
180	0xbefeb78a	-0.49749404
181	0xbcb049b6	-0.021519523
182	0xbe0155ea	-0.1263043
183	0xbe8f75af	-0.28019473
184	0x3d9f0855	0.07765261
185	0xbdd1b72d	-0.10240016
186	0xbe3f902b	-0.1870734
187	0xbcfe4c81	-0.03104234
188	0xbdefa883	-0.11702063
189	0x3dbe74ea	0.09299643
190	0x3def78a9	0.11692936
191	0xbe6751aa	-0.22589746
192	0xbdd5f4ea	-0.10447104
193	0x3c9503b3	0.01819024
194	0xbe9afb36	-0.30269784
195	0x3b6b9ff8	0.0035953503
196	0xbd9d53f8	-0.076820314
197	0xbc89b9f3	-0.0168123
198	0xbec031f2	-0.37538105
199	0x3d45d61d	0.048299897
200	0x3ea776d6	0.32707852
201	0xbd53896e	-0.051644735
202	0xbddd6a35	-0.10811273
203	0x3d602c5c	0.054729804
204	0x3e6caab7	0.23111998
205	0xbd9d42fd	-0.076787926
206	0x3ccef7d9	0.025264667
207	0x3eeca7eb	0.4622186
208	0x3e97aef2	0.2962566
209	0x3d18b650	0.03728324
210	0xbc8d2207	-0.01722814
211	0xbcd69a58	-0.026196644
212	0xbde717c9	-0.112838335
213	0xbdd1c3c9	-0.10242421
214	0xbe0d7505	-0.1381417
215	0xbe9027ed	-0.2815546
216	0x3e8efeb8	0.2792871
217	0x3dde9e0a	0.10869987
218	0x3a81cd49	0.0009903099
219	0x3d6c2742	0.057654627
220	0xbe3c188e	-0.18368742
221	0xbdde1e4d	-0.10845623
222	0xbdf30dd9	-0.118678756
223	0xbea6f242	-0.32606703
224	0xbc804f82	-0.015662912
225	0xbe034c1c	-0.12822002
226	0xbe28d935	-0.16489108
227	0xbeaf0902	-0.3418656
228	0x3db33b96	0.087515995
229	0xbdd92e42	-0.10604526
230	0x3dd5f422	0.10446955
231	0xbdd8f0b7	-0.10592788
232	0x3d8c9db1	0.06866015
233	0x3edc107b	0.42981324
234	0x3d4e2e9a	0.05033741
235	0xbd68b196	-0.056809984
236	0xbdb22388	-0.08698183
237	0xbed9ef7c	-0.42565525
238	0xbe6110b0	-0.21979022
239	0x3d801e2e	0.06255756
240	0xbe0daceb	-0.13835494
241	0xbe6f6aa7	-0.23380528
242	0xbd0a4e5f	-0.033766147
243	0xbe0e1937	-0.13876806
244	0xbe1b78b8	-0.1518277
245	0x3d1175ff	0.03551292
246	0x3da91290	0.08255494
247	0xbe3e9586	-0.18611726
248	0x3d5bd523	0.05367006
249	0x3db95424	0.09049252
250	0xbe3f478c	-0.18679637
251	0x3f13e9a6	0.57778394
252	0xbc9919a6	-0.018688988
253	0xbe7b81ee	-0.24561283
254	0x3e1d6b98	0.15373075
255	0x3d1c689f	0.038185712

fc1.bias f4 [128]
0	0x3daaeac5	0.0834556
1	0x3d5b8f8d	0.053603698
2	0x3e1e0b29	0.15433945
3	0x3cdd740d	0.027032876
4	0x3c28f9f1	0.010313497
5	0x3e0b3163	0.13593058
6	0x3dd84ed8	0.10561913
7	0x3e616e1d	0.22014661
8	0x3e3c0816	0.1836246
9	0x3d4584d5	0.04822238
10	0x3c64d7d4	0.013967473
11	0x3dc6224d	0.09674511
12	0x3e26aa92	0.16276005
13	0xbd30fecf	-0.043211754
14	0x3e6a6c47	0.22892867
15	0x3e43c916	0.19119677
16	0x3df30bea	0.11867507
17	0x3dd3424c	0.103153795
18	0x3ced0f32	0.02893791
19	0x3c7ea827	0.01554302
20	0x3adcd506	0.0016848154
21	0x3e330e67	0.17485963
22	0x3dbe470d	0.092908956
23	0x3e4bb85e	0.19894549
24	0x3dca1890	0.09867966
25	0x3e2069fb	0.15665428
26	0x3e01ea7a	0.12687102
27	0xbc918644	-0.017764218
28	0x3e61941e	0.22029158
29	0x3d0fe874	0.035133794
30	0x3e5eca51	0.21756865
31	0x3d86692c	0.06563029
32	0x3e2e853b	0.17043011
33	0x3d80bdc1	0.06286193
34	0x3e360969	0.17777027
35	0x3e2783dd	0.16358896
36	0x3bc96578	0.006146129
37	0x3b316fe5	0.002707475
38	0x3e071241	0.13190557
39	0x3e9261f9	0.28590372
40	0x3e5897c6	0.21151647
41	0x3dfa4138	0.12219471
42	0x3e03a17b	0.12854569
43	0xbb8f5900	-0.0043746233
44	0xbc6dcf31	-0.01451473
45	0x3a292d82	0.00064536196
46	0x3e55be49	0.2087337
47	0x3e36b0c3	0.17840867
48	0x3dbad974	0.09123507
49	0x3c5869aa	0.013208786
50	0x3d833c01	0.06407929
51	0x3daafd5d	0.083491065
52	0x3d27d9cd	0.040979195
53	0x3d88bacb	0.06676253
54	0x3d38c22d	0.045107055
55	0x3d9b53b6	0.07584326
56	0x3bdbf7ea	0.0067129033
57	0x3e57145b	0.21003859
58	0xbca731a3	-0.02040941
59	0x3e171ff2	0.1475828
60	0x3e05702d	0.13031073
61	0x3cdd5e5a	0.02702253
62	0x3e29e4d0	0.16591191
63	0x3df6dd21	0.12053896
64	0x3d86ca99	0.06581611
65	0x3ce93087	0.028465522
66	0x3dfbbee2	0.122922674
67	0x3e4e6a8f	0.20157836
68	0x3c5b7113	0.013393658
69	0x3df9f3fb	0.12204739
70	0x3e33782e	0.17526314
71	0x3e2f68d7	0.17129837
72	0x3d4e21cb	0.050325196
73	0x3e068ba7	0.1313921
74	0x3e0cb32d	0.13740225
75	0xbb64139b	-0.0034801725
76	0x3e0dc6bd	0.13845344
77	0x3db089b9	0.086200185
78	0xbd0b42d5	-0.033999283
79	0x3d2beb88	0.041972667
80	0x3e09f29d	0.13471456
81	0x3dba8ad0	0.09108508
82	0x3d4470a7	0.047958996
83	0xbd3bd70a	-0.045859374
84	0x3e558ccf	0.20854495
85	0x3e7780cd	0.24170227
86	0x3e4b071e	0.19826934
87	0x3e0b6866	0.13614044
88	0x3d8c4522	0.068491235
89	0x3dae4ce8	0.085107625
90	0x3dbc41d4	0.09192243
91	0x3dd8ddfe	0.10589217
92	0x3e37e10d	0.17956944
93	0x3d33e7ac	0.04392211
94	0x3ca642b3	0.020295477
95	0x3d519669	0.051168833
96	0x3e99576c	0.2994951
97	0x3e765112	0.24054363
98	0x3e615d5a	0.22008267
99	0x3e57fff8	0.21093738
100	0x3df33ac4	0.11876443
101	0x3e1dc2be	0.1540632
102	0x3e465032	0.1936653
103	0x3c052f88	0.008129008
104	0x3e007ef0	0.12548423
105	0x3e1a6f7d	0.15081592
106	0x3e29257e	0.16518208
107	0xbbeb0567	-0.007172275
108	0x3dea18b8	0.11430496
109	0x3d8ddc55	0.069267906
110	0x3db988ff	0.09059333
111	0x3e5a8378	0.21339214
112	0x3db1dc0e	0.0868455
113	0x3e0ffb4a	0.14060703
114	0x3e62e43a	0.22157374
115	0x3be6f2ee	0.0070480024
116	0xbcb74943	-0.022373801
117	0x3e2fe1e1	0.1717601
118	0x3e28401f	0.1643071
119	0x3db21db6	0.08697073
120	0x3c80298d	0.015644813
121	0x3d0f3263	0.034960162
122	0x3dad32e6	0.08456974
123	0x3ebee973	0.37287483
124	0x3deab385	0.11460022
125	0x3e1d8e99	0.15386428
126	0x3d10af2c	0.035323307
127	0x3e103603	0.14083104

fc2.weight f4 [148, 128]
0	0x3d5386db	0.05164228
1	0xbde287c4	-0.110610515
2	0xbc9b0898	-0.018924996
3	0xbb523832	-0.0032076952
4	0xbd94b5f2	-0.07261266
5	0xbe099a8e	-0.13437864
6	0x3e0022a3	0.12513213
7	0xbe3ef1e6	-0.18646964
8	0xbdd45753	-0.10368218
9	0x3d8dfdc2	0.06933166
10	0x3e60600b	0.21911637
11	0xbd60d8e0	-0.054894328
12	0x3dc21fe4	0.09478739
13	0x3b9839cf	0.004645563
14	0xbf8a24bf	-1.0792464
15	0xbdbd918e	-0.09256278
16	0xbe5de8fe	-0.2167091
17	0x3c3e9546	0.011632269
18	0xbea3b6e5	-0.31975475
19	0xbf974841	-1.1818925
20	0xbe97f572	-0.29679447
21	0xbd219ac5	-0.03945424
22	0x3d720c0c	0.05909352
23	0xbf03fe62	-0.5156003
24	0xbcd7eb83	-0.026357418
25	0xbfbd19e9	-1.4773532
26	0xbe47b8ee	-0.19504139
27	0xbda927bd	-0.082595326
28	0x3d6b4201	0.057435993
29	0xbea7eb1a	-0.32796556
30	0xbf371811	-0.715211
31	0x3e90f4bf	0.28311726
32	0xbe4e130c	-0.20124453
33	0xbf83bdac	-1.0292258
34	0xbf0dfaab	-0.55460614
35	0xbc3913a6	-0.011296188
36	0xbd543435	-0.0518076
37	0x3c8ef2ea	0.017449815
38	0x3dae9bda	0.0852582
39	0xbec85245	-0.39125267
40	0x3d7e888d	0.062141944
41	0xbec3fd1f	-0.38279054
42	0x3d7cd82c	0.061729595
43	0xbebe49e0	-0.37165737
44	0xbe412dcb	-0.18865125
45	0x3d8d7df8	0.06908792
46	0xbd859fa4	-0.0652459
47	0xbea878f5	-0.32904783
48	0xbca0369d	-0.019557292
49	0xbe56932f	-0.20954584
50	0xbd7e21ff	-0.06204414
51	0x3e2840a8	0.16430914
52	0xbc7c0a5f	-0.015383332
53	0x3d952916	0.07283227
54	0x3e70aa37	0.23502432
55	0xbf6ae4d5	-0.9175542
56	0xbf46d9c7	-0.7767605
57	0x3e007596	0.12544855
58	0xbd80de70	-0.062924266
59	0x3d13dbb7	0.03609821
60	0xbf68c018	-0.9091811
61	0x3e4c99c9	0.1998054
62	0xbe29bef4	-0.16576749
63	0xbe4314c2	-0.19050887
64	0x3dcfa0cd	0.10138092
65	0xbf17e25a	-0.5932976
66	0xbf816497	-1.0108823
67	0x3d875964	0.06608847
68	0xbdef29de	-0.116779074
69	0xbeb84b5a	-0.3599499
70	0x3e230994	0.15921623
71	0xbf046b1d	-0.5172594
72	0xbdb19f88	-0.08673006
73	0xbd74ca0d	-0.059763003
74	0xbf351236	-0.7073091
75	0xbdf8893e	-0.12135552
76	0xbdf52152	-0.11969246
77	0xbd919fb5	-0.0711054
78	0x3c711e5d	0.014716712
79	0xbec4465e	-0.38334936
80	0xbf17a197	-0.5923094
81	0xbe0d50af	-0.1380031
82	0xbcd78646	-0.026309144
83	0x3dfa22a4	0.122136384
84	0xbe3a34f5	-0.18184264
85	0xbe486cac	-0.19572705
86	0xbd5dbc52	-0.054134674
87	0xbf27ce71	-0.6554938
88	0x3e03cc5d	0.12870927
89	0xbf8310bb	-1.0239481
90	0xbd24e429	-0.040256653
91	0xbea6b324	-0.32558548
92	0x3d66e457	0.056370106
93	0xbc063188	-0.00819052
94	0xbc2ef0be	-0.010677515
95	0x3def3316	0.11679666
96	0xbe475ae2	-0.19468263
97	0x3e068bb5	0.13139232
98	0xbcbccff6	-0.023048382
99	0xbf061b68	-0.5238557
100	0xbe78dda2	-0.24303296
101	0x3e3c249c	0.1837334
102	0xbdbff921	-0.093736894
103	0xbe25ef47	-0.16204558
104	0xbdcdb516	-0.10044305
105	0xbe88eb8b	-0.26742205
106	0x3c3d1839	0.01154142
107	0x3db02e85	0.08602623
108	0x3df879d4	0.12132612
109	0x3e16a11d	0.14709897
110	0xbe955c43	-0.29171953
111	0xbff63f9b	-1.9238161
112	0xbe66906d	-0.22516032
113	0xbd087e5d	-0.033323634
114	0xbe0d64c5	-0.13807972
115	0x3d9ced26	0.0766242
116	0x3e8e9b01	0.27852634
117	0xbf9be754	-1.2179971
118	0x3e8d2d57	0.27573654
119	0x3d7c6ec4	0.06162907
120	0xbea156cc	-0.31511533
121	0xbdbecc41	-0.09316302
122	0xbdea0148	-0.11426026
123	0xbd235ed8	-0.039885372
124	0xbef103f4	-0.47073328
125	0xbd0b770a	-0.03404907
126	0xbe4da84e	-0.20083734
127	0xbd9034d5	-0.07041327
128	0xbd4d0eb4	-0.05006285
129	0x3da4e937	0.08052295
130	0x3e5f973f	0.2183504
131	0x3e03a3b5	0.12855418
132	0x3d4b97f2	0.049705453
133	0xbc8c6226	-0.017136645
134	0xbe23b6dc	-0.15987724
135	0x3ad09742	0.0015914219
136	0x3df0c8e2	0.11757065
137	0xbde179aa	-0.11009534
138	0x3d65a233	0.05606289
139	0x3eadd7b0	0.3395362
140	0xbe274b2c	-0.1633727
141	0x3d5cd951	0.053918187
142	0xbfb5231e	-1.4151342
143	0xbda3d22d	-0.07999072
144	0xbfed083b	-1.8518137
145	0xbebbcb5a	-0.36678582
146	0xbc16cf6d	-0.009204728
147	0xbe677424	-0.22602898
148	0xbda75741	-0.08170939
149	0xbe3eaaa8	-0.18619788
150	0x3d805a20	0.0626719
151	0xbe85944c	-0.26089704
152	0x3e24593d	0.16049667
153	0xbfe61450	-1.7974949
154	0xbf312142	-0.6919137
155	0x3dbb6332	0.091497794
156	0x3d74b01a	0.059738256
157	0xbdd75914	-0.10515037
158	0xbf17fd6a	-0.59371054
159	0xbc3fc5c1	-0.011704863
160	0xbdda97a1	-0.10673452
161	0xbf9a1659	-1.203807
162	0xbe0a5351	-0.13508345
163	0xbee33610	-0.44377184
164	0x3d259897	0.040428724
165	0x3d66cb0c	0.056345984
166	0xbe34edb1	-0.17668797
167	0xbe80a720	-0.25127506
168	0xbe46f38e	-0.19428846
169	0x3cb4a92f	0.02205333
170	0x3eb7e61a	0.3591774
171	0xbdc27f87	-0.0949698
172	0x3b37ad32	0.0028026816
173	0x3e07e3f1	0.13270546
174	0xbea03e7c	-0.31297672
175	0xbf4f0fab	-0.8088328
176	0xbef73d72	-0.48289067
177	0x3c1d1af7	0.009588948
178	0xbf1e9936	-0.6195253
179	0xbed94c88	-0.424412
180	0xbf7bafad	-0.98314935
181	0x3e16475c	0.14675659
182	0x3e833b26	0.25631064
183	0xbe1b5b46	-0.15171537
184	0xbf6bb5d1	-0.92074305
185	0x3db15a40	0.08659792
186	0x3ccc1ae7	0.024915172
187	0xbe1c0dca	-0.15239635
188	0xbf04520e	-0.51687706
189	0x3e1cfe8d	0.15331478
190	0xbf2fad69	-0.6862398
191	0xbf3be8ae	-0.73401916
192	0x3e0fa370	0.1402719
193	0x3e04442f	0.12916635
194	0xbeb6c3f3	-0.35696372
195	0x3eab0ef0	0.33409834
196	0xbdeec07b	-0.116578065
197	0xbf2c13b6	-0.67217577
198	0xbca918b9	-0.020641671
199	0xbf107e0f	-0.5644235
200	0x3e54af76	0.20770058
201	0xbea56c8c	-0.32309377
202	0xbd560b67	-0.052256968
203	0xbe32b39a	-0.17451325
204	0x3d92d706	0.07169919
205	0xbe237e45	-0.15966137
206	0x3d4e9d8f	0.05044323
207	0xbe9a0cd6	-0.30087918
208	0xbebd08db	-0.3692082
209	0x3e7797c6	0.2417899
210	0xbd757252	-0.059923477
211	0xbe33cdce	-0.17558977
212	0xbd9659d9	-0.07341356
213	0x3e4ecc89	0.20195211
214	0xbf006597	-0.50155014
215	0x3e68a641	0.22719671
216	0x3e8eb565	0.27872768
217	0xbe7647c7	-0.24050818
218	0xbf377049	-0.7165571
219	0x3e5f9f69	0.21838154
220	0xbcbb1777	-0.022838337
221	0xbf8387da	-1.0275834
222	0x3cf8ecf1	0.03038642
223	0xbe4ddc42	-0.20103553
224	0xbcade611	-0.021227868
225	0xbed118ee	-0.40839332
226	0xbe3aa529	-0.18227066
227	0xbde3ce86	-0.111233756
228	0xbed50b45	-0.4161016
229	0xbce8a2a9	-0.028397875
230	0xbfe1c9c6	-1.7639701
231	0xbec2a916	-0.38019627
232	0xbe634c56	-0.22197089
233	0xbec129af	-0.37727115
234	0xbec629c7	-0.3870375
235	0x3e083c42	0.13304237
236	0x3de453c0	0.111487865
237	0x3e7c921c	0.24665111
238	0x3e4a5e7f	0.1976261
239	0xbe8882dc	-0.26662338
240	0xbdc07359	-0.09397001
241	0xbe36187b	-0.17782776
242	0x3e50865f	0.20363759
243	0xbdac9ea2	-0.08428694
244	0x3dc95a23	0.09831645
245	0xbe9021d6	-0.28150815
246	0xbddebccb	-0.10875853
247	0xba347ab6	-0.00068847404
248	0x3d08c9d9	0.033395622
249	0xbec151d3	-0.3775774
250	0x3da7bddf	0.08190512
251	0xbe2219f5	-0.15830214
252	0xbf61abf2	-0.8815299
253	0xbebbfad4	-0.36714804
254	0x3ca12351	0.01967016
255	0xbd98d8c9	-0.074632235

fc2.bias f4 [148]
0	0xbe432007	-0.19055186
1	0xbd4c0088	-0.049805194
2	0xbe0cfb98	-0.1376785
3	0x3e3facea	0.18718305
4	0xbd25c969	-0.040475283
5	0xbce012da	-0.02735274
6	0xbd5ecebb	-0.054396372
7	0xbdb97679	-0.090558
8	0xbc96be1d	-0.0184012
9	0xbd426e9e	-0.047468774
10	0xbe28c30a	-0.16480651
11	0x3db11fe9	0.086486645
12	0xbbcaea37	-0.0061924714
13	0xbb222496	-0.0024741045
14	0xbd1b3ece	-0.037901692
15	0xbd114e25	-0.035474915
16	0xbdc2d641	-0.09513522
17	0xbb8196be	-0.0039547374
18	0xbdc5027a	-0.09619613
19	0xbdaec2ed	-0.08533273
20	0xbd8a41be	-0.067508206
21	0xbd0640d7	-0.03277668
22	0x3df49316	0.11942117
23	0xbe3a690b	-0.18204133
24	0x3b83155e	0.00400035
25	0xbd895c68	-0.06707078
26	0xbd46585b	-0.048424106
27	0x3d34b448	0.044117242
28	0x3dc2a2cb	0.095037065
29	0xbcc71496	-0.024301808
30	0x3d7fc8e2	0.062447436
31	0xbd635682	-0.055502422
32	0xbe35f3b2	-0.17768744
33	0xbe237977	-0.15964304
34	0x3c50309b	0.012706901
35	0x3d80da23	0.06291606
36	0x3db267c9	0.08711202
37	0xbd5187e9	-0.051155005
38	0xbce5bc7f	-0.028043984
39	0xbd9e7c8f	-0.077386014
40	0xbb70ca3e	-0.003674164
41	0x3b202e05	0.0024441492
42	0xbce742fa	-0.02823018
43	0x3de1e371	0.11029709
44	0xbcc7b621	-0.024378838
45	0xbd7b7be0	-0.061397433
46	0x3c703a99	0.014662408
47	0x3c80dfae	0.015731659
48	0xbd845ea4	-0.06463364
49	0x3c5b4ff7	0.013385764
50	0xbd0c9163	-0.03431834
51	0xbc911a59	-0.017712759
52	0x3cf4b24e	0.029870179
53	0xbdb835c8	-0.08994633
54	0x3c80a020	0.015701354
55	0x3b54ee2c	0.0032490594
56	0xbd711e86	-0.058867
57	0x3d740168	0.059571654
58	0xbd0cf936	-0.034417354
59	0xbd5facfd	-0.054608334
60	0xbdd9f2df	-0.10642027
61	0x3cce079e	0.025150117
62	0xbe3f5ae3	-0.18687014
63	0x3d441af0	0.047877252
64	0x3cfd8636	0.030947786
65	0x3ce08a6b	0.027409753
66	0xbd8ae035	-0.06781045
67	0xbdc78767	-0.09742623
68	0xbda819ad	-0.08208022
69	0xbde32535	-0.11091081
70	0xbd613e9a	-0.054991342
71	0x3db6f6e2	0.08933808
72	0x3d5d6c7d	0.05405854
73	0xbd4f4a5c	-0.050608024
74	0x3ca8eea8	0.020621613
75	0x3d419f8b	0.047271293
76	0xbdd52772	-0.10407914
77	0x3d9533a9	0.07285244
78	0xbe4664d1	-0.19374396
79	0xbd4a6e50	-0.04942161
80	0xbdb9fa43	-0.09080937
81	0x3ccdaca0	0.025106728
82	0xbde19842	-0.11015369
83	0x3cb71a23	0.02235133
84	0xbdd076c0	-0.101789
85	0x3d1f3f3e	0.03887867
86	0xbd2d2b57	-0.04227766
87	0xbdb2685c	-0.08711311
88	0xbdcd74cd	-0.100320436
89	0xbccde5d4	-0.025134005
90	0x3b845e1b	0.0040395386
91	0xbd5e7319	-0.054308984
92	0xbb1d5598	-0.0024007317
93	0xbcef560e	-0.029215839
94	0xbdb89876	-0.090134546
95	0x3cdcd2b3	0.026955938
96	0xbc87d69e	-0.01658183
97	0xbdab915f	-0.08377337
98	0xbdcca94a	-0.09993227
99	0x3e1d26b8	0.15346801
100	0xbd387e4d	-0.045042325
101	0xbd2e8074	-0.04260297
102	0xbe0e6aeb	-0.13907973
103	0xbe2ab1fc	-0.16669458
104	0x3d005faf	0.03134125
105	0xbd9e819c	-0.07739565
106	0xbde2cad2	-0.11073841
107	0x3da7aadc	0.08186886
108	0xbdaf4095	-0.0855724
109	0x3d016818	0.031593412
110	0x3e1b9c4d	0.15196343
111	0xbcdaf2d9	-0.026727127
112	0xbcd6c12e	-0.026215162
113	0xbdb78bfb	-0.08962246
114	0x3b7748be	0.0037732567
115	0xbdc6f420	-0.09714532
116	0xbdee534c	-0.11636981
117	0xbbd36442	-0.0064511606
118	0xbd83956d	-0.06424985
119	0xbd930732	-0.07179107
120	0xbdae5923	-0.08513095
121	0xbca1b173	-0.019737935
122	0xbd237ccd	-0.03991394
123	0xbae535e5	-0.0017487375
124	0xbd4d9144	-0.050187364
125	0x3dc1f7b9	0.094710775
126	0x3b94679b	0.0045289523
127	0xbd0e76dc	-0.034781322
128	0x3dc44ecf	0.09585344
129	0xbdf82e9f	-0.12118267
130	0x3d9d428b	0.07678708
131	0x3d9468df	0.07246565
132	0x3d259cf8	0.0404329
133	0xbd12adf8	-0.03581044
134	0x3d254ad1	0.040354554
135	0x3d8a6424	0.067573816
136	0x3d0bb81e	0.034111135
137	0xbdb8214b	-0.08990725
138	0xbd6fb23e	-0.058519594
139	0xbd926e61	-0.07149959
140	0xbcb9d959	-0.022686647
141	0xbdd1fa70	-0.10252845
142	0x3ca2fd3f	0.019896148
143	0xbd89c0a7	-0.06726199
144	0xbd2a41d2	-0.041566677
145	0x3cd7ea0d	0.026356721
146	0xbd1b763b	-0.03795455
147	0xbe04049e	-0.12892386
